…
        "model.compile(optimizer=tf.keras.optimizers.Adam(lr=0.01),loss='categorical_crossentropy',metrics=['accuracy'])\n",
        "model.summary()\n",
        "plot_training=PlotTraining(sample_rate=10,zoom=16)"
      ],
      "execution_count": null,
      "outputs": [
        {
          "output_type": "stream",
          "text": [
            "Model: \"sequential_2\"\n",
            "_________________________________________________________________\n",
            "Layer (type)                 Output Shape              Param #   \n",
            "=================================================================\n",
            "reshape_3 (Reshape)          (None, 28, 28, 1)         0         \n",
            "_________________________________________________________________\n",
            "conv2d_6 (Conv2D)            (None, 28, 28, 12)        108       \n",
            "_________________________________________________________________\n",
            "batch_normalization_8 (Batch (None, 28, 28, 12)        36        \n",
            "_________________________________________________________________\n",
            "activation_8 (Activation)    (None, 28, 28, 12)        0         \n",
            "_________________________________________________________________\n",
            "conv2d_7 (Conv2D)            (None, 14, 14, 24)        10368     \n",
            "_________________________________________________________________\n",
            "batch_normalization_9 (Batch (None, 14, 14, 24)        72        \n",
            "_________________________________________________________________\n",
            "activation_9 (Activation)    (None, 14, 14, 24)        0         \n",
            "_________________________________________________________________\n",
            "conv2d_8 (Conv2D)            (None, 7, 7, 32)          27648     \n",
            "_________________________________________________________________\n",
            "batch_normalization_10 (Batc (None, 7, 7, 32)          96        \n",
            "_________________________________________________________________\n",
            "activation_10 (Activation)   (None, 7, 7, 32)          0         \n",
            "_________________________________________________________________\n",
            "flatten_2 (Flatten)          (None, 1568)              0         \n",
            "_________________________________________________________________\n",
            "dense_4 (Dense)              (None, 200)               313600    \n",
            "_________________________________________________________________\n",
            "batch_normalization_11 (Batc (None, 200)               600       \n",
            "_________________________________________________________________\n",
            "activation_11 (Activation)   (None, 200)               0         \n",
            "_________________________________________________________________\n",
            "dropout_2 (Dropout)          (None, 200)               0         \n",
            "_________________________________________________________________\n",
            "dense_5 (Dense)              (None, 10)                2010      \n",
            "=================================================================\n",
            "Total params: 354,538\n",
            "Trainable params: 354,002\n",
            "Non-trainable params: 536\n",
            "_________________________________________________________________\n"
          ],
          "name": "stdout"
        }
      ]
    },
    {
      "cell_type": "code",
      "metadata": {
…
